pytorch-model.pth (torch, 251788 bytes, 10 tensors)

conv1.weight f4 [6, 3, 5, 5]
00000000: 2e0b 77bc 9975 3a3d 292c 803a a8b7 2dbd
00000010: abba 17bd 7eab fa3c bf24 80bc da41 2dbd
00000020: 368c 40bd 49ad 603c e6d7 83bd 90a4 2cbd
00000030: 14eb 87bd 0a8e 08be 3a10 4cbb 128d 1cbe
00000040: 4649 b9bc f1f0 35be 4b68 a5bd 65de 34be
00000050: 4f45 22be 10a6 29bc 32bf 28be 7c49 22be
00000060: b2fd aebd bd85 85bd 7953 aebc d719 99bd
00000070: f56b b6bd 31ce b9bb cdf3 6c3b 9bb4 07be
00000080: 64d9 22bd 886c 233d 3168 bf3c a470 d13c
00000090: 6e43 f8bd e49b 99bd 5ece 02be 70bb 8cbd
000000a0: b293 e8bd cd01 62be 67a0 09be 979c f1ba
000000b0: 70aa 203b 4b8d 5fbd 663e 1dbc c7fe 51be
000000c0: c86d 82bd b23f f0bd ab70 073e c4f9 a23d
000000d0: 3ed3 d93d 9e6d 9b3d a523 e6bc b48b 97bd
000000e0: 5fae dcbd f019 1e3d 1643 b23d a8c7 d43d
000000f0: bd12 f83b fa99 77bd be2d d1bc 38c6 f9bd
00000100: d947 093d 028b 8abb 75a3 fcbd bc90 45bd
00000110: d88a d638 adb6 1ebc 2142 b4bd 7425 12bd
00000120: be3f c13c 333f cfba 37bf d13d cd01 e63d
00000130: cb52 72bd 4693 ca3d b00f 3f3d 8dc4 ad3d
00000140: 3fa2 a23d 58ac 2dbd 93dc 9d3d db32 ec3d
00000150: 5216 71bd 36c3 7c3d 8d87 813d a55d 503e
00000160: 51ed 333e 0502 ee3d 5b3b 44bd 69ca 92bd
00000170: f31f 7bbd 94dd ee3c 84b8 c63d 9300 10be
00000180: 05d8 96bc 8195 7b3c b0c8 dbbc 13d7 d23d
00000190: 9c23 54be 2d9a 1c3c de3d bdbd 90a0 61bc
000001a0: f7c3 89bd f4ca a8bd 3f07 adbd 6b9e 04be
000001b0: a7e4 62be 2da3 9ebd 8118 bf3d 6bd9 4b3d
000001c0: b44d ec3d c1eb 4c3d 94ee 55bd a54b 9bbb
000001d0: b8a6 b43c d278 b33c c9ce f3bd 19fe 91bd
000001e0: e6f3 9fbd 4038 14be 5940 0bbd cf19 32be
000001f0: 6a44 58be c288 c1bd a6f5 a03c 0462 c8bd
00000200: 9966 07be 9176 8cbd cf64 d1bd 7459 02be
00000210: eefb 0cbe 2b30 d4bd a23a 2cbd ebfc 4f3c
00000220: f13d 263e 45df 08bb 3017 113d d5e5 ff3d
00000230: 7641 083e 396c 79bd bb17 c23d cf8e 7c3d
00000240: 3cef c13d a82e a33d e683 b53c 9d18 b2bd
00000250: 1e91 8dbd d4fb 80bd 2028 3a3d cf0f f03d
00000260: 42e3 623d 0438 19bb ad9a cd3d 9125 bd3d
00000270: b50f 493d dcb3 423e 4600 073e 4b5c bbbd
00000280: b927 1ebd bdad cdbb 8efb 843d b29a 45bd
00000290: 0586 063e 2d51 ce3d 75eb ffbc 79de 9f3d
000002a0: ce99 103e 056b e73c afaf c73d 253b 133e
000002b0: 2f16 4abd 9639 3c3d e272 283d 1aad 47bd
000002c0: 66a2 853d 3f2f 0cbd f7c0 903d 7cff 46bd
000002d0: eb06 1abd 1cf5 043e 1250 233e 91a0 28bd
000002e0: 7245 d4bd ac41 9f3d 0621 903d e43c 333c
000002f0: b0d0 e23d e58a 53bd 9281 773d 99e1 1a3e
00000300: 03e0 c43a 2d4a 40bc f426 6a3d c593 f33d
00000310: 8760 f33d 1875 db3d 70b6 d23c 4c81 99bd
00000320: 0fc2 33bd 70b1 be3d de30 3c3e ce4b 40bb
00000330: 5f6a 903d cc43 753a 87e0 453e cc97 1c3e
00000340: 8742 b23d 6004 293c eb85 0c3d c384 513d
00000350: 2c90 7e3d 150b cc3d 18f1 13bc ba02 153e
00000360: c6d8 033d 05ae ee3d 1801 003e 6ff3 293d
00000370: 6df0 cd3d 01e3 173c b30d b43d e157 9e3d
00000380: e9c9 1e3e e510 5b3d 89da 23bd 7d26 2c3c
00000390: c1fa d53d f1ae e5bc 2ba1 01bd 0de9 e33c
000003a0: 8821 d93d 7585 0c3d f8f6 cc3d 908f 38bd
000003b0: d00e 94bd de9c 1dbc 85db edbd 3958 c0bd
000003c0: 15bc 4bbd b747 7cbd ebec 023b d695 d8bd
000003d0: ce55 05be f9ad e2bd c820 8e3d dd0a b63d
000003e0: a165 083d 8ccd 93bd 44c8 45bd 8bb7 b83c
000003f0: 14c4 813c d4f8 423d a8b3 d73c 8591 323e
-0.015078349 0.045522306 0.0009778786 -0.042411476 -0.037043255 0.030599352 -0.015642522 -0.04229913
-0.047008716 0.013713189 -0.06437664 -0.042149127 -0.066366345 -0.13335434 -0.0031137601 -0.15288189
-0.022617947 -0.17767693 -0.08076533 -0.17662962 -0.15846752 -0.010354534 -0.16479185 -0.15848345
-0.08544482 -0.06519649 -0.021280037 -0.07475632 -0.0890731 -0.005670332 0.0036156059 -0.1325249
-0.0397581 0.039898425 0.023365112 0.025566407 -0.12122236 -0.07500437 -0.12774035 -0.06871688
-0.11356296 -0.22071 -0.13440095 -0.0018433508 0.0024515651 -0.054578107 -0.0095973965 -0.20507346
-0.06368595 -0.11730899 0.13226573 0.07957795 0.106359944 0.07589267 -0.028093169 -0.07399693
-0.10775446 0.038598955 0.08704202 0.10389644 0.007570593 -0.060449578 -0.025534507 -0.1219601
0.033515785 -0.004227997 -0.123358645 -0.048233733 0.00010230177 -0.009687108 -0.088016756 -0.03568025
0.023589965 -0.0015811682 0.102415495 0.11230812 -0.05916099 0.098913714 0.04664582 0.08484755
0.07941102 -0.042400688 0.07708087 0.115331374 -0.058859177 0.061709605 0.063246824 0.20348223
0.17570998 0.11621479 -0.04790817 -0.07167513 -0.061309766 0.029158391 0.09703162 -0.14062719
-0.018413553 0.015355469 -0.026829094 0.102949284 -0.20716709 0.009558243 -0.09240316 -0.013771191
-0.067268305 -0.08241835 -0.08448648 -0.12951057 -0.22157536 -0.07745967 0.093308456 0.049767893
0.11538258 0.05002952 -0.05222948 -0.004739242 0.022052154 0.021908198 -0.119046755 -0.071285434
-0.07810192 -0.14474583 -0.033996914 -0.17392658 -0.21119848 -0.094499126 0.019648384 -0.0978432
-0.13222732 -0.06858552 -0.10224306 -0.12729436 -0.13767979 -0.1036075 -0.042048104 0.012694578
0.16234566 -0.0020885032 0.035422504 0.12495009 0.13306221 -0.060894225 0.094771825 0.06165963
0.094694585 0.07967883 0.02215762 -0.08696101 -0.069124445 -0.062980324 0.045448422 0.11721765
0.05539251 -0.0023379335 0.10039268 0.09235681 0.049087245 0.19013923 0.13183698 -0.09148463
-0.0386121 -0.0062768147 0.06493293 -0.048243232 0.13137062 0.10074077 -0.031240204 0.07806105
0.14121172 0.028249273 0.09750306 0.1437803 -0.049337562 0.045953356 0.041125186 -0.048749067
0.06525116 -0.034224745 0.07068055 -0.048583493 -0.037604254 0.12984127 0.15948513 -0.041168753
-0.10364808 0.07776198 0.07037549 0.01093981 0.1107496 -0.051646132 0.060426302 0.15125121
0.0015020374 -0.011736435 0.057166055 0.11893419 0.118836455 0.10715693 0.025721759 -0.074953645
-0.04388624 0.09311187 0.18378016 -0.0029342058 0.07051539 0.0009356111 0.19323932 0.15292281
0.08704095 0.0103159845 0.0343074 0.051152002 0.06214921 0.09963051 -0.009029649 0.14551821
0.032189153 0.11654285 0.12500417 0.041491922 0.10055623 0.009270431 0.087916754 0.07731605
0.1550671 0.05348291 -0.040003333 0.010507223 0.10448218 -0.02803752 -0.031647842 0.027821088
0.10602099 0.034306962 0.10008043 -0.045058787 -0.07229388 -0.00961992 -0.11614136 -0.09391827
-0.049739916 -0.06159183 0.001997764 -0.10575454 -0.13021013 -0.11068339 0.06939846 0.08888791
0.033300046 -0.07216939 -0.04828669 0.022548458 0.015840568 0.047600582 0.026330784 0.17438324

conv1.bias f4 [6]
00000000: 2077 ef3a 1fd4 21be 384e e93d eb8a c13b
00000010: a7ac 5e3d 9d23 0e3f
0.0018269755 -0.15803574 0.11391872 0.005906453 0.054363873 0.5552309

conv2.weight f4 [16, 6, 5, 5]
00000000: 5bd2 afbc a0b2 99bd 0457 f0bc fb0c ccbd
00000010: 0ccc 0fbd e2ef 803d 10b6 873d a91a 92bd
00000020: 31da edbd 7e42 e73c 98e0 b6bd 9cfa 573d
00000030: 7705 3a3d 959c 57bd 82e2 d13c e737 e4bd
00000040: 862b 6cbc 047d 2abb 3920 213d 1691 39bd
00000050: 3c9d c7bd ab66 4f3b 9f87 a63d 91db bf3d
00000060: 857a d43c 494b f5bc 5263 703d f0ce a5bd
00000070: 2a12 09bd 7f77 1abd 3f69 3c3d 4605 d53c
00000080: 65d2 683b 3423 a8bd e561 2b3d 8226 92bd
00000090: 352e 52bd df7c 8a3c 570a 1dbd eb6b c5bc
000000a0: 7e9b 133c 4a9a e73c 9996 883d 42ce f0bc
000000b0: 8520 833d 15c9 11bd ba47 d4bc d914 61bd
000000c0: 8f12 b4bd 44eb b0bd 77a1 90bd 555d 5dbd
000000d0: 64cc aabc f1ab 4f3d 77ef 813d 358e 4b3d
000000e0: e92b 573d 8ab7 db3c e243 0c3c 4617 8f3d
000000f0: 16d3 f2bc ca68 bf3c 45b1 af3b 0828 6d3d
00000100: 75ef 773c 5544 40bd 8bc1 24bd 4aef 793d
00000110: f17a aabc 657b b83c 0e6a b53d 5ef3 283d
00000120: 768d 063d ed22 05bd 62a5 8dbd ff75 c93c
00000130: 6eb9 a4bd f656 abbd 73a9 63bb 014c b2bd
00000140: a4b7 cdbc 10aa 68bd 9b83 8a3d 1362 17bd
00000150: 59cf ecbb 8735 adbd 5291 31bd 2a8c 753d
00000160: 6bb4 f3bc b6f3 e2bc 8598 4c3d b071 9cbd
00000170: 96ee cf3c 5ee4 623b 85fb cc3b c0c5 0dbd
00000180: 7f9b a8bd 83d3 7ebd 35d3 3a3d 5a47 803d
00000190: 8a73 dbbc 131e d4bc 3ab2 9cbd 1302 f73c
000001a0: 6e81 433d 144d f3bb 1ba8 83bd 47c0 6bbd
000001b0: 1986 06bd 1dfa 103c 391a 7d3d 87ac 793d
000001c0: 7eb7 55bb 595e 6dbd 467c bfbc 2d8f 94bc
000001d0: a5c7 5e3d 6087 a9bd 4afd 3f3d 57d1 073d
000001e0: 0079 28bd da9a b83d b979 923c eae9 323d
000001f0: 1498 033e 7d74 c63d b0b4 673c 39c1 803d
00000200: 7427 c2bb ddb6 323d 2b41 213d 495f cbbb
00000210: ccd3 e1bb e57c ccbd 4b94 c1bb 96de ac3d
00000220: c658 a03d 67ee 43bd eb04 87bd 29a2 ae3d
00000230: 363b 5ebd 25a1 32bd 9db2 133e 6f23 193e
00000240: 9eaa 113e 0575 ecbb c6b5 8fbd ef72 123e
00000250: efe8 333e 4953 3c3e 8bee b3bd 4048 acbd
00000260: 544b 94bc ebf4 0f3d ae75 683d e920 123d
00000270: 661d 54bd 533c da38 9fb2 993d 96a7 d63d
00000280: ccef f63c 6f04 f23c fc07 47bc 7178 a93d
00000290: 05b9 3c3a bd1c 843d 44cf adbd 6929 e6bc
000002a0: 2d94 49bd 5eb4 3f3d 0868 b1bd 77e0 afbd
000002b0: 8b8e c93c e70a 9d3d 079e 893d 5938 533d
000002c0: e278 7f3d 8a57 2abd 1b30 163c b91c c53d
000002d0: 4af3 9ebd 384a 75bc f705 05bc e43b bcbc
000002e0: 5c60 d03b 7784 6bbd 1cee 79bc d8cf 29bc
000002f0: 6682 663d 6d86 a13d 75fb 743d 6a14 2dbd
00000300: 1cc4 133d 944c 45bd 3a82 a83b 1002 83bd
00000310: c510 8fbc 82c1 c8bc 192c 25bd 8424 21bd
00000320: 5fef 3b3d 9471 0f3e e49f da3d afb9 9c3c
00000330: d07a 97bd 9155 ee3d 3e86 e53c 9609 553d
00000340: 0a76 c1bc f51d f9bd ff7d 3f3b 5810 b63d
00000350: d0ae 083d 2a9c b0bc 7d8f 96bb 001e f53a
00000360: df44 473d 7f1c 2fbc 32ae 91bc f3d9 81bc
00000370: 64f5 0a3d 6e4e ff3b ab04 15bd b757 163d
00000380: 82a6 833d e20d 69bd d391 fcbc 37f9 7ebd
00000390: 3605 9fbc e1b7 98bd 670e 493d 08bf aabc
000003a0: eea9 9cbd efa4 94bd 099b ecbd 5f96 df3d
000003b0: 2b29 983d 9506 423d 9bcf b2bd 9067 b7bd
000003c0: d362 0bba 4eae 5c3d 36d2 61bb 37df 8fbc
000003d0: 4ab2 cabb 8a9a 3c3d 3088 90bd b9c6 9bbd
000003e0: 50aa 8dbd 70d5 f8bc d4a2 1b3d 5285 0abd
000003f0: 93a9 25bd ff11 00bd 8e99 553d 5b2c f73c
-0.02146261 -0.07504773 -0.029338367 -0.09963413 -0.035106704 0.06295754 0.066265225 -0.07133991
-0.11613882 0.028229948 -0.089295566 0.052729234 0.045415368 -0.052639563 0.025620703 -0.11143475
-0.014414674 -0.0026014457 0.03933737 -0.04530438 -0.09746787 0.0031646888 0.081313364 0.09368051
0.025937328 -0.029943125 0.05868847 -0.08096111 -0.03346459 -0.037711617 0.045998808 0.026003491
0.0035525796 -0.082098395 0.041841406 -0.07136251 -0.051313598 0.016905246 -0.03833994 -0.02409931
0.00900924 0.028271813 0.06669349 -0.029395226 0.06402687 -0.035592157 -0.025913108 -0.054951522
-0.08792602 -0.08638623 -0.07062047 -0.054044086 -0.020849414 0.050701085 0.063445024 0.049696166
0.05253211 0.026820917 0.008561106 0.06986861 -0.02964167 0.023365397 0.0053617083 0.057899505
0.015132775 -0.046940167 -0.04022364 0.06101922 -0.020810576 0.022519777 0.08858119 0.041247718
0.03284975 -0.03250401 -0.0691631 0.024592398 -0.080431804 -0.08366196 -0.003473845 -0.08705903
-0.02511198 -0.05680281 0.06763383 -0.036958765 -0.007226866 -0.08457475 -0.04335148 0.059948124
-0.029749116 -0.027704101 0.04995014 -0.07638872 0.025382321 0.003462098 0.0062555694 -0.034612417
-0.082327835 -0.062213432 0.04561158 0.06263609 -0.026788492 -0.025893247 -0.076511815 0.030152356
0.047730856 -0.00742496 -0.06428548 -0.057556417 -0.03284273 0.008848694 0.061792586 0.06095555
-0.003261059 -0.057951305 -0.023374688 -0.018134678 0.054389615 -0.08277774 0.046872415 0.033158626
-0.04113102 0.090139106 0.017880308 0.04368011 0.12850982 0.09690187 0.0141422 0.06286854
-0.0059251133 0.043631423 0.03936879 -0.0062064272 -0.0068917032 -0.09984759 -0.0059075705 0.084408924
0.07829432 -0.04783478 -0.06592735 0.08527023 -0.054255687 -0.04361071 0.14423604 0.14954923
0.14225242 -0.0072160983 -0.070170924 0.14301656 0.17569326 0.18391146 -0.08785733 -0.08412218
-0.018102325 0.03514568 0.056752853 0.035675917 -0.05178585 0.00010406286 0.075047724 0.10481183
0.030143641 0.02954313 -0.0121479 0.082749255 0.0007199201 0.06450794 -0.084867984 -0.028095918
-0.049213577 0.04680287 -0.086624205 -0.08587735 0.024604103 0.07668095 0.067195944 0.05156741
0.062371142 -0.04158739 0.009166743 0.09624619 -0.077612475 -0.014971308 -0.008119098 -0.022977777
0.006359143 -0.057499375 -0.015254524 -0.010364495 0.0562767 0.07886968 0.05981012 -0.042255796
0.036075696 -0.048168734 0.0051424773 -0.06396878 -0.017464051 -0.024506334 -0.040325258 -0.039341465
0.04588258 0.1400817 0.10675028 0.01913151 -0.073964715 0.11637414 0.028018113 0.052011095
-0.023615856 -0.12163917 0.0029219387 0.08889836 0.03336984 -0.02155884 -0.004594742 0.0018700957
0.048649665 -0.010687946 -0.017783258 -0.015850997 0.03392543 0.007791332 -0.036381405 0.036704745
0.06428243 -0.056898005 -0.030831253 -0.06224939 -0.019411664 -0.07456947 0.049086 -0.020843044
-0.07649599 -0.07258021 -0.11553008 0.10917353 0.07429727 0.04736956 -0.08731004 -0.089553
-0.0005317155 0.053877167 -0.003445757 -0.017562492 -0.0061858045 0.046045817 -0.07057226 -0.07606263
-0.0691725 -0.030375212 0.037997082 -0.03381855 -0.04044492 -0.031267162 0.052148394 0.030172518

conv2.bias f4 [16]
00000000: c4ff 2c3e 1649 c93a 9628 ac3d 4aae 8abd
00000010: 8e68 9fbd 5c97 c23d 8925 40bd 2eea 1ebe
00000020: ef14 bd3d 894b 6e3d 4d32 d63d bf5f b9bd
00000030: b79c fd3d 8c50 893e 3d5a 28be d48d 55bb
0.16894442 0.0015356864 0.08406179 -0.06771524 -0.07783614 0.09501526 -0.046910796 -0.1551902
0.092325084 0.058177505 0.10458813 -0.09051465 0.123834066 0.26819265 -0.16440673 -0.0032585757

fc1.weight f4 [120, 400]
00000000: 9d6d aa3c f652 003c 19bb c0bc dfd4 1abd
00000010: fb36 e83c 30ca a5bc 0bd3 3bbd df35 cbba
00000020: 999e 32ba a73e 5e3c c4fd b5bc 6158 bd3c
00000030: bd2f 3abd 19de 23bd c1ce 43bb be8c 893c
00000040: 24e7 bfbc 962e 6abd 99fe 32bd 7a06 9abc
00000050: c16d 333d a560 173d 969e 33bd 52be ba3b
00000060: 4e3f 023d 9185 96bc d187 afbb 10db ffbc
00000070: 697e 49bd b3a7 32bc 8e34 6ebb c09a 3fbc
00000080: f7db 14bd 73f1 91bc 30d2 33bc bafb 56bd
00000090: f5ce 9fbc ac45 dbbb 0672 b53c faae 813c
000000a0: 1e14 67bd 135d 983c d7b3 01bd 84ba 1a3d
000000b0: 0309 7e3c 1cd2 d2ba 8bd5 053d 45c4 2fbd
000000c0: 270b 433d 79ec 663d fc2f 133d 97fd 003b
000000d0: 0f32 963c 3d19 debc c20d f03c 8b38 f43c
000000e0: 5fb2 caba 8888 93bc f0f2 1b3d e693 4cbd
000000f0: b1e1 103c d5bb f5bc 28e4 3d3d ae10 283d
00000100: baa2 3cbd fc53 e73c fb5e c53b 76f7 34bd
00000110: 0ccd 10bd 80bb fcbc 4a07 133d b519 1ebc
00000120: 28e1 343c 6912 db3c e8ea fd3c eb94 45bb
00000130: d3f3 233c 806d fdbc 88ef b3bc f4cd eabc
00000140: bd21 33bd ce2d 203d 5fca d7bc 9f59 c03c
00000150: d354 dcbc 31da a1bc 01af 0a3d a149 a3bc
00000160: c367 26bd 8d60 da3c 58cf 043d 23bf c63c
00000170: 91ce 39bd a917 343d 8365 31bd b23d 72bc
00000180: 2cde 1abd d3f4 40bd 60a4 a8bb c157 f9bb
00000190: 37fc 60bc 16c3 393d 4f0f d53c a9e9 89bc
000001a0: ab2f afbc fcca 4dbc bb29 9c3c 8e4d 0a3d
000001b0: c6a1 35bd 7d65 263d 4e80 423d e321 e13b
000001c0: 625b cc3c 3e9b e03c 9df5 58bd 94ae dfb9
000001d0: 5099 b83c 6b5e 49bd c527 76bd c0ea 643b
000001e0: 98a3 893c 780d 793b 3202 78bc de2f 623c
000001f0: 4b6b 97bc 19d5 8f3c 51ea a73b 16a2 0dbd
00000200: fe28 fd3c 0f7f eabb e786 ab3c a834 e73b
00000210: d4e3 ffbc c544 933c 89bb e33c 6bc7 9fbc
00000220: b0e1 7cbc a438 18bd ec93 e53c b8ff 0b3d
00000230: 2913 9dbc b411 b4bc b589 f1bc 7764 e03c
00000240: f028 0d3d 2b03 453c 3299 0ebd 5914 7b3c
00000250: 1cbd 0bbd ae47 983c b623 a93c 1c1c 28ba
00000260: dea2 e93c f2ad b33c c480 91bc ae01 823c
00000270: c3aa 453d fd35 5abb c927 65ba c321 12bd
00000280: 0106 cbbc 6a05 aa3c 8e81 07bd c54b 8ebc
00000290: b0d1 acbc c66f 083d 0796 0e3d d10d aabc
000002a0: 7e35 5dbc e336 cabc 9b74 05bd 77f9 3d3d
000002b0: 2a57 30bc 2370 7b3b 4d4e 9bbb 548b 4d3c
000002c0: 9266 233d 4849 313d 4da3 d53c d9de 07bd
000002d0: e8ab 413d 8490 4fbd 3a4a 13bd d762 35bd
000002e0: d2ce 1d3b e83d fc3c 5663 353c 703c 203d
000002f0: 5a70 38bd 45a6 ee3c 7ff5 dbbb e10c 433c
00000300: 3269 eb3c 05e8 c2bb 37c3 db3c 5a31 37bc
00000310: 75f7 393b 018d 5b3c a64b 90bc b2cf 27bd
00000320: 3be8 4fbd 1c9e 443d 4d40 3dbd 8dea 053d
00000330: da05 893c dee7 8dbc 5af8 bc3c b199 303b
00000340: b46a 13bd 455a f5ba b523 383d 06eb 0ebd
00000350: 099a b2bc e983 363d 3069 4bbd 3f3e b2bb
00000360: dd01 3b3d 72ef 983c 57ff c1bc 08f8 1cbc
00000370: 9b68 3e3d 30a1 893c 012b 2abd 18e1 3e3d
00000380: 0b6a ba3c 64d1 36bd 804a 363d 601b 1e3d
00000390: 7931 793c 5140 883a fab2 153d 0256 453d
000003a0: 4e6f 553d db64 073c a580 abbc 0575 04bd
000003b0: 2758 0c3d d3fa af3b 93d2 01bd c870 413d
000003c0: 86b8 293d e470 893c d5b7 c83a bcaf 343d
000003d0: 572f bebc a736 403d 4a09 0a3d 584e 353d
000003e0: 59bf 153d 1028 943a 05e5 193d f915 05bd
000003f0: 5969 93bc 952d 893c 162f dd3b 4745 54bd
0.02080422 0.007832279 -0.023526715 -0.037800666 0.02834653 -0.020238012 -0.045855563 -0.0015503726
-0.0006813794 0.013564742 -0.022215731 0.023113431 -0.045455683 -0.04000673 -0.0029877874 0.016790744
-0.023425646 -0.057173334 -0.043699834 -0.018801916 0.04380584 0.0369574 -0.04385241 0.0056989575
0.031798653 -0.018374236 -0.0053567667 -0.031232387 -0.04919282 -0.01090424 -0.0036347243 -0.01169461
-0.036342587 -0.017815327 -0.010975406 -0.05248616 -0.019507864 -0.006691655 0.022149097 0.015830506
-0.05641567 0.018599069 -0.03166565 0.03777553 0.015505078 -0.0016084346 0.032674354 -0.042911787
0.047618058 0.05637786 0.035934433 0.0019682401 0.018334417 -0.027111644 0.029303435 0.029812118
-0.0015464536 -0.01800944 0.03807348 -0.049945734 0.0088428715 -0.029996792 0.046360165 0.041031532
-0.046053626 0.028238289 0.0060232854 -0.04418131 -0.035351798 -0.030851126 0.035895623 -0.009649684
0.01104001 0.026742177 0.030995801 -0.0030148576 0.010006863 -0.030936003 -0.021964803 -0.02866266
-0.043733347 0.039106183 -0.026341615 0.023480235 -0.026895916 -0.019757362 0.033858303 -0.01993257
-0.0406263 0.026657367 0.0324243 0.024261063 -0.045363013 0.043967877 -0.0433097 -0.014785217
-0.037809536 -0.047108483 -0.005146548 -0.007609338 -0.013732008 0.045352064 0.026008276 -0.01683505
-0.021385035 -0.012560602 0.019062867 0.03376537 -0.044343732 0.04062413 0.047485642 0.0068704947
0.024945918 0.027417775 -0.05296861 -0.00042663945 0.022534043 -0.04916231 -0.06009652 0.003492996
0.01680164 0.0038002413 -0.015137242 0.013805358 -0.018483778 0.017557668 0.0051243682 -0.034578405
0.030903336 -0.00715626 0.02093835 0.0070558377 -0.031236567 0.017977128 0.027799385 -0.01950427
-0.0154346675 -0.03716339 0.028024636 0.03417942 -0.019174175 -0.021981098 -0.02948461 0.027391655
0.03446287 0.012024681 -0.034814067 0.0153246755 -0.034115896 0.018588867 0.020646911 -0.000641288
0.028520044 0.02193353 -0.017761596 0.015869942 0.048258554 -0.003329634 -0.0008741585 -0.03567673
-0.024783136 0.020754535 -0.033082537 -0.017370114 -0.02109608 0.03330972 0.034811046 -0.020758541
-0.013501523 -0.024684375 -0.032581907 0.046380486 -0.010762969 0.00383664 -0.004739559 0.012545425
0.03989274 0.043282777 0.026078844 -0.03317151 0.047283083 -0.05067493 -0.03595946 -0.044283714
0.0024079573 0.030791238 0.011071047 0.039120138 -0.04502902 0.029132018 -0.006712615 0.011904926
0.028736684 -0.005948069 0.026826484 -0.0111812 0.0028376256 0.013400317 -0.017614197 -0.040969558
-0.05075858 0.048002347 -0.0462039 0.03269439 0.016726423 -0.017322477 0.023067642 0.0026947076
-0.035990432 -0.0018718919 0.044955928 -0.034892105 -0.021801965 0.044559393 -0.04966086 -0.005439549
0.045656074 0.018668864 -0.023681326 -0.00958062 0.04648648 0.016800493 -0.041544918 0.046601385
0.022755643 -0.044633284 0.044504642 0.038600326 0.015209549 0.0010395144 0.03654764 0.048177727
0.0521081 0.008263792 -0.020935366 -0.03233816 0.034263756 0.0053704767 -0.03169496 0.047226697
0.04143574 0.016777463 0.0015313575 0.044112906 -0.023215933 0.04692712 0.033700265 0.044264168
0.036559436 0.0011303443 0.037571926 -0.032491658 -0.01799457 0.016745368 0.006749998 -0.05182388

fc1.bias f4 [120]
00000000: 6fb2 75bc 6233 98bc d5fc f6bc 26f0 293b
00000010: 3443 ef3b 2612 74bd d62a 3a3d f124 e9bc
00000020: 0ce9 f2bc d3c5 21bd 2aea 063c 5556 89bc
00000030: cc79 05bd 2b75 093d 5bcf c53c 2a1e 203c
00000040: 8364 303d 911a 933c f37d 3f3d 28d6 9f3c
00000050: ed02 803c 69a2 f13c 7b66 1dbc f4f9 09bd
00000060: 6e6b 3cbd dfda a339 0a7c 773c 3e74 8e3c
00000070: 604b 683d 23f7 36bc 30ea f9bb e3e1 16bd
00000080: 5077 1ebd a7cf a03c da4b 863c 1521 033c
00000090: e67e 213d 2834 00bd e64c 753d 0eb6 a1bb
000000a0: e8fe a03c 24f0 19bc d206 293d 6109 533d
000000b0: bc96 2c3d 86de 92bc 7e55 eebc 6305 323d
000000c0: 1a4f 5abd 6666 3bbd cfe7 073d 689f 9fbc
000000d0: b7de 2c3d fd48 ec3b 8b19 bcbc 74fa 2fbd
000000e0: 22d0 3b3c 9702 f83c ba29 b9ba 5a5a 3bbd
000000f0: e215 9f3c f9c1 84bd b195 4dbb c08f 0b3d
00000100: 6e9f 5abd 7857 ba3c cf69 da3c 9d22 9cbb
00000110: 7480 283b bae6 2e3c 68f5 ccbc 15e4 05bd
00000120: c820 dbbc 3fa0 0b3d 7e6c e0bc 961d 3e3c
00000130: 5959 11bd 5838 d0bc 14d0 08bc 9630 ebbc
00000140: e4dd 633b 733e 2cbd 64a0 38bd 40ca 80bc
00000150: 5089 713d 0410 3b3d ee32 cd3c 52d8 383c
00000160: a276 1d3d db41 00bd 07a7 223d 83e6 ff3c
00000170: 7bb5 4f3d c4c5 fabc f297 81bd 6c39 2bbd
00000180: 0217 30bd 0c9a b9bc 183d 903d 7f55 03bd
00000190: 2bea 82ba 9d52 07bd e36a 4fbb 8d05 ff3b
000001a0: e1f3 683c dd3c f6bc 69c0 04bd e932 993c
000001b0: 28c6 16bc 55a0 d23c 005a 613d ce25 0a3d
000001c0: 0d53 3bbd 7b3d 33bd 46b9 2f3d 349e 2a3d
000001d0: 1a12 673c 0f0d b9bc d27c a4bb ab6b 74bd
-0.014996155 -0.018579189 -0.030149857 0.0025930493 0.0073017124 -0.05958762 0.045451008 -0.028459998
-0.029652141 -0.0394953 0.00823454 -0.0167648 -0.032586858 0.033559006 0.024146726 0.009772817
0.043064605 0.017957004 0.046750974 0.019511297 0.015626395 0.029496389 -0.009606953 -0.03368564
-0.04600089 0.00031252854 0.015105257 0.017389413 0.05671251 -0.01116732 -0.0076267943 -0.036836516
-0.038688004 0.019630266 0.01639359 0.008003493 0.03942766 -0.03129974 0.05988779 -0.0049350327
0.019652799 -0.009395633 0.04126627 0.051522616 0.04213594 -0.017928373 -0.0290935 0.04346217
-0.053298093 -0.04575195 0.033180054 -0.01948519 0.042204585 0.0072108493 -0.022961399 -0.04296346
0.011463197 0.030274672 -0.0014126815 -0.045740463 0.019419614 -0.0648231 -0.003136974 0.034072638
-0.0533747 0.022746786 0.026661782 -0.0047648684 0.002571133 0.010675127 -0.025019363 -0.03268822
-0.02674903 0.03408837 -0.027395483 0.0116037335 -0.0354856 -0.025417492 -0.008350391 -0.028709691
0.0034769708 -0.042051744 -0.045074835 -0.01572144 0.058968842 0.04566957 0.0250487 0.0112820435
0.038443215 -0.031312805 0.03971007 0.031237846 0.050710183 -0.03061188 -0.063278094 -0.04180281
-0.042990692 -0.022656463 0.07042903 -0.032063957 -0.0009988 -0.03303777 -0.0031649403 0.007782644
0.0142183015 -0.030058319 -0.03241006 0.018701034 -0.009202518 0.025711218 0.05501747 0.03372746
-0.0457335 -0.043759804 0.0429013 0.04165478 0.014103437 -0.022589235 -0.0050197626 -0.059672993

fc2.weight f4 [84, 120]
00000000: 704d 0fbd 95f0 533d c0e8 cdbd 095c 16bd
00000010: 034c 8fbd c2a9 933d 706f 093c 2ee6 0d3d
00000020: fa90 373d 91c6 d13d cb73 a83d 5b1d 353d
00000030: cc9e 84bc 05cb b53d 1b47 b13c 4689 ab3c
00000040: eb19 2f3d ee87 c9bd b0f8 84bd c4be 8abd
00000050: a842 54bd 80f6 af3d b4ee 9bbd 6bfe 18bc
00000060: 9b03 cebc b56c 7e3b 863c 9d3d 1cc2 683d
00000070: a886 09be 55e7 123d 87bf be3d 4029 97bd
00000080: 7a7f aebc 02bd 7d3b b1f1 ff3b eef8 063d
00000090: 0814 13bd 9a3e c83d 27dd 7a3c c8c5 d23c
000000a0: 1d25 2a3c 2ba3 bfbd 6468 c43c 1954 d1bd
000000b0: 9d5a c8bd 615a 2d3d b52c aebc f838 933d
000000c0: 2e3c 8dbb d453 acbd fdda 623d 8bcc 443d
000000d0: 53ea 273c 9b64 44bc 8544 c3bb f462 873d
000000e0: 8b8a febc bb9e 94bd 2f67 65bd 3e3f 253d
000000f0: 0d76 933c 0dfc 0f3e 8041 d1bd 1d90 febc
00000100: 7f2e e23d 20fc 19bd 9a41 cbbd 4fa9 c13d
00000110: d342 2d3d a85a 103d 6a05 933d 7ced 1dbd
00000120: 43d3 3f3d 4133 54bd 23eb 53bd 20b9 b6bc
00000130: 57f7 9c3c 9a1c d6bb 07df 113c d431 8fbc
00000140: ec6b a0bc 375d b4bc f828 973d e0c8 93bd
00000150: 8b31 8abb 957a 3d3d 9934 b33d dbe6 633d
00000160: 2435 03bd c43e b4ba 6706 cc3c e749 863d
00000170: 8360 c13c 8f85 2fbd f17a 0f3e a9ec 2fbd
00000180: b2ee 993d f29b 44bd 5d1a 85bd 879a 6ebd
00000190: 9391 ad3d 8bdf 333d ccfc eb3c c447 bf3d
000001a0: fe82 0b3d 4a8d 45bc a988 5abc c1c8 b23d
000001b0: 4782 96bc 5888 d93d 8a20 d2bd 0341 9d3c
000001c0: 92b7 b23b a63f 103d a7dc fbbc 3ae1 853d
000001d0: be8d a03c e7d0 70bd 3065 903d 90fb 133d
000001e0: 6803 52bc 5f7b 18bd b915 70bd face 36bd
000001f0: d612 8f3c 7c62 70bd ac8b 1d3d 44ec 4dbc
00000200: f728 863d 18a5 0f3d 9570 ae3b 4aff 883d
00000210: 85f6 b43d ca14 b5bc a79d 23bc 370c bdbc
00000220: 2298 7cbc 9afe a93d 58cf acbc 0593 ab3d
00000230: 94c5 c1bd b9cc b63d 4c30 613c c7cf c0bd
00000240: c936 823d 2e93 a13d 90b6 8fbd acc0 19bc
00000250: 9c7c 263d b44f 29bd a75a 95bd 500b b8bd
00000260: 3147 7cbd f97b 753d edcd 16bc 3f69 e9bc
00000270: fa3f 0e3c dd7f 99bd 02e4 053d cb3d 8b3d
00000280: 1c09 1ebd fe11 793d 0afb b8bd ffec 92bb
00000290: 7894 e0bc d3eb cd3d 4677 5cbd 2b8a 8abd
000002a0: ef29 283d 7365 8dbc 7c15 47bd 05ba 2b3d
000002b0: 5e7d b43c 33b8 ffbb 51f1 913d 8b98 5e3d
000002c0: c959 823c 315f 6dbd 580d 57bd 9c56 703b
000002d0: a7cc 9e3d ee26 42bd eae6 a4bd c812 603d
000002e0: 8e30 413d 761b bf3c de18 5bbc aa1c 723d
000002f0: 9648 163b ee39 1bbd e7c5 f43d 508c aabd
00000300: 416a b83d 9b3e febc 8c73 bdbd 346b 503b
00000310: 1759 d5bc d1dc ccbd e16a 7f3d b852 723d
00000320: 71fb debc d8e4 583d cc29 7ebd ad11 ee3d
00000330: d927 b73d 193f 363d aef1 923c 20a9 0dbd
00000340: 4ef1 aebc 9f5d ab3c d787 adb9 1b73 e3bc
00000350: 8f9d b83d f939 97bd 8e87 45bc 91f5 0ebd
00000360: d61f 773d 929a 303d a45d babd 9c08 c73d
00000370: 05b0 cabd 8d4c 72bd 54ad d13a 0f23 ec3d
00000380: d2d9 7d3b 6909 963b 9e72 813d d6a2 f23c
00000390: 4c7f 0bbd 67af 74bc c8cb c2bd ed4c 1f3d
000003a0: df5e 2ebc 07db 3e3c 1877 a9bb c6c8 59bd
000003b0: 6cf5 8dbd 8455 ceba e8f3 98bd 0e42 e53c
000003c0: cad2 3d3d 7e05 4bbd 13be b93d 0960 2c3d
000003d0: 00ef 893d 1acc 833d 3089 abbd c8c2 cf3d
000003e0: 3b6b 8fbd 46f0 923d 7e29 8abd 3c6f 8bbc
000003f0: 18be 7dbd a575 ab3d 2946 963c 7774 95bd
-0.03498596 0.05174311 -0.10054159 -0.036708865 -0.0699692 0.07210113 0.008388385 0.034643345
0.044815995 0.10242952 0.08225211 0.04421745 -0.016189002 0.088766135 0.021640351 0.02093948
0.042749327 -0.0984038 -0.06492746 -0.06774667 -0.05182138 0.08591938 -0.076138884 -0.009338002
-0.025148204 0.0038822119 0.076775596 0.056825742 -0.13430274 0.035865147 0.09313875 -0.07380915
-0.02130102 0.0038717394 0.0078107943 0.03295224 -0.035907775 0.09777565 0.015311516 0.025729075
0.010384825 -0.09357294 0.023975559 -0.102211185 -0.09782908 0.04232252 -0.021261552 0.071886
-0.0043101525 -0.084144264 0.055384625 0.04804663 0.010248738 -0.011986877 -0.005959096 0.06610671
-0.031071922 -0.07256838 -0.056006607 0.040343516 0.018000627 0.14060993 -0.10217571 -0.031074578
0.11044025 -0.03759396 -0.09924622 0.09456121 0.042300057 0.035242707 0.07178767 -0.03855656
0.046832334 -0.051806692 -0.051737916 -0.022305071 0.01916091 -0.0065341713 0.0089032715 -0.017479815
-0.019582711 -0.022017105 0.07380861 -0.07216048 -0.0042173318 0.04625948 0.087502666 0.055640083
-0.0320331 -0.0013751616 0.024905397 0.065570645 0.02360559 -0.04285198 0.14011742 -0.042950306
0.07516231 -0.048000284 -0.06499169 -0.058252838 0.08475032 0.04391436 0.028807066 0.0933986
0.03406047 -0.012057612 -0.013338246 0.08729697 -0.018372668 0.10621709 -0.102601126 0.019196039
0.005454012 0.03521695 -0.030744864 0.06537099 0.019598838 -0.058792975 0.0705055 0.03612858
-0.012818195 -0.03722703 -0.058614466 -0.044630982 0.017465036 -0.058687672 0.03846328 -0.012568537
0.06550782 0.035069555 0.0053234794 0.066893175 0.08836082 -0.02210464 -0.009986318 -0.023077114
-0.015417131 0.083005145 -0.021094963 0.08377651 -0.09461513 0.089257665 0.013744425 -0.094146304
0.06358106 0.078894004 -0.07017243 -0.009384315 0.04064618 -0.041335776 -0.07292681 -0.08986533
-0.06159133 0.059932683 -0.00920437 -0.028492568 0.008682245 -0.07495091 0.03268815 0.067988954
-0.038582906 0.060808174 -0.09032257 -0.0044838185 -0.027414545 0.100547455 -0.053824686 -0.06764635
0.041055616 -0.017260289 -0.048604473 0.04192545 0.022032436 -0.0078039407 0.071261056 0.054344695
0.015911954 -0.05795211 -0.05250296 0.0036672717 0.07753878 -0.047400407 -0.08051856 0.05470541
0.047165446 0.023328524 -0.013372628 0.059109367 0.0022931448 -0.037897043 0.119518094 -0.08327544
0.09004641 -0.031035712 -0.092505544 0.003180218 -0.026043458 -0.10003055 0.062357787 0.059160918
-0.027219506 0.052952617 -0.06205158 0.11624465 0.08943147 0.04449377 0.017937507 -0.03458512
-0.021355297 0.020918665 -0.0003309834 -0.027764848 0.09014427 -0.07384104 -0.012056245 -0.03490216
0.060333095 0.04311616 -0.09099892 0.09718439 -0.09896854 -0.059155036 0.001599709 0.115301244
0.0038734567 0.0045787585 0.063206896 0.029618662 -0.034056947 -0.014934397 -0.095115244 0.03889172
-0.010642736 0.0116489 -0.005171668 -0.053169988 -0.06931576 -0.0015742038 -0.074683964 0.027985599
0.046343602 -0.049565785 0.09069457 0.042083774 0.06735039 0.06435414 -0.08375776 0.101445735
-0.070028745 0.07174735 -0.06746195 -0.017020814 -0.061948866 0.08372048 0.018344002 -0.072976045

fc2.bias f4 [84]
00000000: 93f7 dabb 0508 b63d 80f8 a73d f1de 6cbc
00000010: 37ab 0bbd 3279 893d fa4c f6bc 8c98 17bd
00000020: 578d cf3c 819c e0bd 321e 41bc fa91 ac3a
00000030: c5b0 883d 2794 6cbd d234 fd3c a9d4 203e
00000040: 2e68 86bb fcad dcbc f1a6 873c 2163 a73d
00000050: 4765 613d b955 d73d ccf9 8a3d 0e7a 69bd
00000060: 843c 443d 6c61 8a3d 76c4 7c3d 02b0 a03d
00000070: 5cb9 8bbd 40dc 6d3c 5f9d ef3c 5d69 59bd
00000080: 9fb0 a43c aeac a1bd d8c8 343d 9836 e13d
00000090: f416 96bd f5ae c83d 5b14 ec3c 011a c03d
000000a0: 7eff 253c 2bd8 de3d 020b 61bd 8ac1 a63d
000000b0: 031d 0fbd 1694 39bd 989e 873d 3de0 1abd
000000c0: a319 b7bd 5b27 d0bc 5d9b 023d a3a0 a13c
000000d0: 10ee 8c39 8aab c6bb 535d 7a3d 9ad2 da3d
000000e0: 7220 abbd ec39 923d 2d84 d23c 537c 053e
000000f0: 51dc 1abd a6a7 463c ed6a 2fbb d2ea fbbd
00000100: 2b03 883d 2e7d 29ba 1249 0eba 30f2 e13c
00000110: c1f0 4bbd e6dd 573d df5f 723d afd3 4fbd
00000120: 346c 85bd ede9 a1bd 1236 afba 2d02 a03d
00000130: 189e 183d 0f1b a33d a671 28bc c972 03bd
00000140: bc39 9d3d 1d05 923b 29e8 a3bd 04da 77bd
-0.006682345 0.08888248 0.082016945 -0.01445745 -0.03409883 0.06712569 -0.030066002 -0.037010714
0.02533595 -0.10967351 -0.011786984 0.0013166063 0.06674341 -0.057758477 0.030908976 0.15706123
-0.0041017747 -0.026938431 0.016559096 0.08173204 0.055028226 0.10514397 0.06785926 -0.057001166
0.047909275 0.06756863 0.061710797 0.07846071 -0.06822464 0.014517844 0.029249845 -0.053078998
0.02010375 -0.07894264 0.044136852 0.10996741 -0.07328597 0.097989954 0.0288183 0.0937996
0.010131715 0.108810745 -0.05494214 0.081423834 -0.034939777 -0.04530724 0.06622046 -0.037811507
-0.08940437 -0.025409391 0.031886447 0.019729918 0.0002688025 -0.0060629295 0.061124157 0.106847
-0.08355798 0.07139954 0.025697792 0.13035707 -0.037807766 0.012124931 -0.0026766614 -0.12300648
0.06641229 -0.00064654916 -0.00054277584 0.027581304 -0.049790148 0.052701853 0.05917346 -0.050738987
-0.06514779 -0.07905946 -0.0013367555 0.07812915 0.037260145 0.079641454 -0.010281002 -0.03209189
0.076770276 0.004456176 -0.080032654 -0.06051065

fc3.weight f4 [10, 84]
00000000: 7be0 e1bc 76c4 b0bd b40f f23d afd8 ccbd
00000010: ae46 613d ef2e 833d facf ce3c 02b0 93bc
00000020: c2d9 9bbc 1855 c3bd 21f6 7c3c 5f1a f73d
00000030: 3f63 f2bd 58ee 953d 8325 2fbd 3187 033e
00000040: 0ff9 d93d 6c14 f73d 801b c1bd 77d9 313d
00000050: 1895 063e 7d55 d43d 8136 07bd becd a8bd
00000060: 02fe ccb8 179e 94bd febf 26ba 9a5b 14be
00000070: ec72 4abc d6d5 b3bd e15c 5c3d f539 54bd
00000080: 68be 8d3d 8980 c3bb 691f d33d 5ccc 82bd
00000090: 4b63 7dbc 9bcd 463e 1fef 233e 8edc 503c
000000a0: 6204 db3d 9b74 b43d 4c95 283e c3e7 12bb
000000b0: 29c2 35bd 2892 16be 91f5 193e 2b04 a93c
000000c0: 8242 cebd 6988 a7bd 7a77 c9bc 41b5 9c3d
000000d0: c6d6 46bd 4384 7abd a0dd 9c3d 3a0d cfbd
000000e0: e9cc 12be 59a8 8abd e036 87bd 8191 dc3d
000000f0: 8cb5 d13d fad9 943d 64cb a93d 9ecf 9e3d
00000100: df68 273e b515 82bd 172d 9d3c 643c ec3c
00000110: 5b60 0fbe 0504 03bd 3de3 643d 7337 3e3e
00000120: 0970 503d 9df7 93bd c171 86bd dcad cd3d
00000130: 09ac b23b d938 d53b 5bd6 6abd 1a52 46bd
00000140: 7dd3 73bd 83e8 5e3d cbbd be3d 5755 efbd
00000150: 85a1 8a3e 589f 2fbd 2a8f 59bb a0f6 133e
00000160: 8e73 373d 2991 313d b3c6 07bd c688 ca3d
00000170: 2d6e 8abc d938 bd3d 0abc 4e3e 4488 473d
00000180: 5745 89bd 5127 013e fc28 463b b424 98bd
00000190: 7e02 e7bc 5d85 f2bd 543a 5cbd 4598 8fbd
000001a0: 492c afbd a157 aabd 4e6d 1ebe 41fc 0b3e
000001b0: 5ec9 88bd b833 9abd 9144 99bd c813 0c3e
000001c0: 13bd 973d bac8 f9bd 3477 26be 1a80 39bd
000001d0: c114 f83d 6f66 09be 445c 603d 1514 d0bd
000001e0: f4db 1a3d f6ff 4dbd fb8d cbbd 8e8a 1dbe
000001f0: ac2a 8e3b 5b49 3cbd 2b1b b7bd 777b a2bc
00000200: 7efa 5ebc 6498 2ebe 2796 a73d 0354 3f3d
00000210: 96b5 8dbb e0c8 55bd 11c4 1c3d 405e 09be
00000220: ddde d53d 2b9c a73b 54dd d23d 3729 56be
00000230: 6890 90bc 3758 8dbe 379e 9dbc 60db 43be
00000240: 3b02 61bd 3fc0 b63d 3ccf b43d 3cb8 cebd
00000250: 8bd6 253e 9533 d1bc afc3 ac3c 621b 703d
00000260: 3962 e23c 01a7 8dbd 520d d8bc fae4 293e
00000270: d65a e33c 0634 48bc 4a44 473d bf5f 4c3d
00000280: 57e4 9cbd 04fd 883c 16e9 d43d da3f a6bd
00000290: 91b7 67bd 9936 d83d adbb 8dbd fe07 aabc
000002a0: b44c a73c e677 203d bcd3 e13d 46b3 0ebe
000002b0: ed29 adbd c820 813d 1284 5fbd c052 123d
000002c0: c872 053e 0f4a 87bd 2b6f 8bbd 6283 d6bd
000002d0: 5110 743d e1ae 4d3c a225 ddbd c43e acbd
000002e0: 174d aa3c a198 e2bd 67a2 53bd 822b d73d
000002f0: f430 dd3d c9cc a63d 5f35 eebd 300b 8fbc
00000300: 5e6c 9f3d 2297 ed3c 04b7 69bd 619a 4cbc
00000310: 21b3 be3d b87d e83d 5bc9 30bc fba2 183e
00000320: f2c9 b43d 6b6a d8bd 87ac b2bd ee73 593d
00000330: ce24 c33d aa16 0b3e b6b5 4d3d 30b8 e3bb
00000340: 4550 283d 5a78 a8bc 40c6 963d 71b0 913c
00000350: dbdd f0bc be07 c0bc 2cb3 083d a71a 963d
00000360: 07e1 bfbd c56a 1c3c 77b9 923c 9a6e 1b3e
00000370: eddc 15be 190a 29bd 47f6 29bd fbcd 0a3e
00000380: 6e7e bf3d 7f6c 463e 057b e63d 09e6 733d
00000390: 6933 ae3c 58b1 d73d b7b4 273d 315d adbd
000003a0: a1cf ef3c a488 1e3d 411f 04bd 4a01 dabb
000003b0: a129 3d3d c1e6 97bd 13a0 1abd ed6e cabc
000003c0: 62a2 77bd e300 94bd 7c16 cb3d c8db 163e
000003d0: 8362 f03d 0a1f 513d 69a2 6f3d e1bf 6f3c
000003e0: c750 013d 7f3f eebd 2b4b bb3d a4a4 c2bd
000003f0: 8726 853c bc2f fcbd d71f dcbb 4a5d 843d
-0.027572861 -0.08631222 0.118194014 -0.100022666 0.054999046 0.06405436 0.025245655 -0.018028263
-0.019024733 -0.09537715 0.015439541 0.12065577 -0.11835336 0.07320851 -0.042760383 0.1284454
0.10643207 0.12064442 -0.09429073 0.04342028 0.13142812 0.10367868 -0.033010963 -0.08242367
-9.774791e-05 -0.07256716 -0.00063610065 -0.14488068 -0.012356501 -0.0878102 0.053799514 -0.051813085
0.06921083 -0.0059662503 0.103087254 -0.06386635 -0.015465568 0.1941437 0.16009186 0.012747897
0.10694195 0.08811303 0.16463202 -0.0022415973 -0.04437462 -0.14704192 0.15035082 0.02063187
-0.10071279 -0.08180315 -0.024593104 0.07651759 -0.048544668 -0.06116129 0.07659459 -0.10109945
-0.1433598 -0.06770391 -0.066022635 0.1076994 0.102397054 0.07268138 0.08290747 0.077544436
0.16348599 -0.063517965 0.01918654 0.02883739 -0.140016 -0.031986255 0.055880774 0.1857584
0.050888095 -0.07224963 -0.065646656 0.10042927 0.005452637 0.006507021 -0.05733333 -0.048418142
-0.059527863 0.05442096 0.09313544 -0.11686199 0.27076355 -0.04287657 -0.0033196905 0.14449549
0.044787936 0.043351326 -0.03314848 0.09889369 -0.016898239 0.092393585 0.20188919 0.048713937
-0.06702679 0.12612654 0.003023683 -0.074288756 -0.02819943 -0.11841843 -0.053766564 -0.07011465
-0.085533686 -0.08317495 -0.15471384 0.13670446 -0.06679033 -0.07529396 -0.07483781 0.13679421
0.0740911 -0.12196489 -0.1625641 -0.045288183 0.121133335 -0.13417982 0.05477549 -0.1016008
0.03780742 -0.05029293 -0.0993919 -0.15384886 0.004338583 -0.045968395 -0.08940729 -0.019834263
-0.013609527 -0.1705032 0.08182936 0.04671098 -0.0043246252 -0.052193522 0.03827292 -0.1341486
0.104428984 0.005115052 0.10296121 -0.2091416 -0.017646983 -0.27606365 -0.019240482 -0.19126654
-0.054933768 0.08923387 0.08828589 -0.10093734 0.16195123 -0.025537292 0.021089403 0.058619864
0.027634727 -0.06916619 -0.02637354 0.16591254 0.027753275 -0.012219435 0.04864911 0.049895998
-0.0766074 0.01672221 0.1039602 -0.081176475 -0.056571547 0.10557289 -0.06920562 -0.020755764
0.020422317 0.039176844 0.11026713 -0.13935575 -0.08455262 0.06305081 -0.05456931 0.035723448
0.13032067 -0.066059224 -0.06808313 -0.10474278 0.059585873 0.012553901 -0.107981935 -0.08410409
0.020788712 -0.11064268 -0.05166855 0.10506345 0.10800353 0.081445284 -0.116312735 -0.01746139
0.07784341 0.02900273 -0.057059303 -0.012487979 0.0931151 0.11352104 -0.010790194 0.14905922
0.088275805 -0.105671726 -0.08724313 0.053089075 0.09528504 0.13582864 0.05022212 -0.006949447
0.041092176 -0.0205652 0.07362032 0.01778433 -0.029402664 -0.023441192 0.033373997 0.07329302
-0.093690924 0.00954694 0.017910702 0.1517891 -0.14635058 -0.041269396 -0.041494634 0.13555138
0.093502864 0.19377325 0.11253933 0.05954555 0.021264749 0.105318725 0.040943827 -0.084650405
0.02927381 0.03870453 -0.03225637 -0.0066529857 0.04618228 -0.0741706 -0.037750315 -0.024711097
-0.060457595 -0.07226732 0.09916398 0.14732277 0.117375396 0.05105499 0.058504496 0.01463315
0.031571176 -0.11633205 0.091451965 -0.09504059 0.016253723 -0.12313792 -0.006717663 0.06463106

fc3.bias f4 [10]
00000000: d58c a43d 9f71 83be 3fa7 2a3e c888 04bd
00000010: 66dd 0c3e c4eb 47bc 0a8d e43d 75b5 f8bd
00000020: d01e cf3d 6889 64be
0.08034674 -0.25672624 0.16665362 -0.032357007 0.13756332 -0.012202207 0.111597136 -0.12143985
0.10113299 -0.22318041
